checkpoint/social-implicit-hotel/val_best.pth (torch, 72001 bytes, 76 tensors)

implicit_cells.0.noise_w f8 [1]
0	0x3ffc22e7d423a6dd	1.7585218702974352

implicit_cells.0.global_w f8 [1]
0	0xbfe64991cbad57bb	-0.6964806535786389

implicit_cells.0.local_w f8 [1]
0	0xbf60ea8027895486	-0.002064943601264138

implicit_cells.0.feat.weight f8 [2, 2, 3, 3]
0	0x3fc2a0afcad42208	0.14552876857511898
1	0xbfbd2df35bfeb0bb	-0.11398240085572102
2	0x3fbc3fb81ae277d7	0.11034727722514447
3	0xbfb5cb830946af2a	-0.0851365945479158
4	0x3fb8ccdbf1218acc	0.09687590252864736
5	0x3f59d601f1584f18	0.0015769022915081473
6	0xbf58ff52d004c1b0	-0.001525717612889204
7	0x3fe0d00c03a051f7	0.5253963538003167
8	0xbfab5d76ae18cd05	-0.05344744563299212
9	0xbf7a8a6d010b00aa	-0.006479669377483935
10	0x3f810805393e98cf	0.008316078958000265
11	0x3fa953c2610eea44	0.04946715769570578
12	0xbfb215d7a7f93714	-0.07064578867831656
13	0xbfc9fb6c4e41e9ab	-0.20298532315412152
14	0xbfb5dbb5ec60ff51	-0.0853837682816423
15	0x3fb3bc267cefe682	0.07708969640943944
16	0xbfc40edf9336fb50	-0.15670389831754017
17	0x3fb53a29aa663afb	0.08291874323024821
18	0xbfb34ffd8826bc7f	-0.07543930601126368
19	0x3fc0e7486882aba3	0.1320581922821847
20	0xbfa1f02b16f31245	-0.03503546385903581
21	0x3fb625c66f3e1a53	0.08651390281566167
22	0x3fa15cd3030468f3	0.033911317938150186
23	0x3fb3a4c1a05d04ef	0.07673273244019517
24	0xbfb284d8acc422cb	-0.07233957498477676
25	0xbfa16611a4344223	-0.033981848997545215
26	0x3f700c936113c63c	0.003918243122130568
27	0x3fa32ceebff08225	0.03745218365680029
28	0x3f8bf9808a0b206e	0.013659481251480279
29	0x3fb5f70418013ed9	0.08580041490608482
30	0x3faec756d453b660	0.06011458722956031
31	0x3fc44aa34f2a194a	0.15852776875926572
32	0x3f93759eb990aabf	0.019003372264857484
33	0xbfa0bc6f38f6681c	-0.03268764086097084
34	0x3fe386893b4cdf93	0.6101728590210648
35	0xbf9b6b4d91711830	-0.026776515962659342

implicit_cells.0.feat.bias f8 [2]
0	0x3fd0f8532e83faa9	0.2651565508130412
1	0x3fe4680912252b1b	0.6376996378324721

implicit_cells.0.highway_input.weight f8 [2, 2, 1, 1]
0	0x3ff0e41088bb5006	1.0556798306543
1	0x3fd275167a496222	0.28839647237831134
2	0xbf9e80049a494bf6	-0.0297852248352903
3	0x3fe6b2d91bdd6449	0.709332041190586

implicit_cells.0.highway_input.bias f8 [2]
0	0xbfd14441f707002e	-0.26979111789478594
1	0xbfe45fe8158d5f7c	-0.6367073460523751

implicit_cells.0.highway.weight f8 [12, 8, 1, 1]
0	0xbfba9814f7414067	-0.10388308559891045
1	0xbfbaa2da92c1ed57	-0.10404745181033569
2	0x3fc827e453e2fca0	0.18871740432766604
3	0xbfc292b3de3afba2	-0.14510200835317472
4	0x3fcab74189a093cb	0.2087175294883806
5	0x3f7e1e8ce11f9406	0.007353353796109912
6	0xbfda3b8c9da51453	-0.40988459963802376
7	0xbfb88f30339b0678	-0.0959348798742442
8	0x3fd050609b405549	0.25490584527263543
9	0x3f9f8eb5fd80d8c3	0.0308178363777294
10	0xbfc543e945e6fe14	-0.16613498604964205
11	0x3f82afd67235c4d6	0.009124446258939416
12	0xbfc0f385fc36c416	-0.13243174376614836
13	0xbfbdaeb0eef454d4	-0.11594682535026674
14	0xbfd5d9aa0dbe2124	-0.34141017286357767
15	0xbfc02aaa33c071b0	-0.12630202795925305
16	0xbfc4795d230cf99d	-0.15995372973879976
17	0xbfc0e95aabab54f1	-0.13212140447891543
18	0xbfc4700609f4e595	-0.15966868864215358
19	0x3fbd8fa1d0dfe297	0.11547290181614255
20	0xbfb6679b3af4c6da	-0.08751840772017819
21	0xbfc554a2855978de	-0.1666453505631073
22	0xbfd9584092bc54c6	-0.3960114891973031
23	0xbfa2714e2351f98a	-0.03602070027499156
24	0xbfc0b22f6e704af9	-0.13043778316986002
25	0xbfc8b14d71a51bf2	-0.1929108433634777
26	0xbfa670543b71a595	-0.04382575250276514
27	0x3fb07d5c5e9036bf	0.06441285427737407
28	0xbfb09263eb2462bf	-0.06473373881125165
29	0x3fbb460dbb06f90c	0.1065376836404292
30	0xbfc8a6db611b755e	-0.19259207002225315
31	0xbfd932d21a024a06	-0.39372684993682616
32	0x3fa97e26fa21de25	0.04979059031841996
33	0x3fb9eb9adf300182	0.10125129650987755
34	0xbfc92209098d98a6	-0.19635117498836968
35	0x3faafab42ee77f4e	0.052693968511219866
36	0x3fab8e5e43c970f4	0.05382055833317337
37	0xbfcbb95a22af0a58	-0.21659399694006498
38	0xbfd300cee17bc1ce	-0.29692432422509973
39	0xbfcd4957e5d7105b	-0.22880076143894965
40	0xbfcf70540e8cbeda	-0.2456154891055949
41	0xbfbef97213eef2b5	-0.12099373804717113
42	0xbfc6e9adf306a3d7	-0.1790063320779882
43	0xbfa43e7393fd65e4	-0.03953896695629647
44	0x3faf3f07ddee2d2b	0.06102776130782169
45	0x3f91e094bc38bb99	0.017458271015296487
46	0xbfce30d46ac3d5a7	-0.23586516583570225
47	0xbfc5b90bffae681a	-0.16970968231618216
48	0xbfca8a1e9380f4da	-0.20734007074671618
49	0xbfbd8f84282cbddf	-0.11547113400296592
50	0x3fcce6073ab2ebe2	0.22576990476758768
51	0xbf6609a584065526	-0.00269014670647984
52	0xbfb5772ad5937766	-0.08384959902056507
53	0xbf8098e36348e7d8	-0.008104111163550629
54	0xbfe076e5647513c2	-0.514513679700592
55	0xbfc8b1ec7128df71	-0.19292979741453167
56	0x3fc38f23903c9ee8	0.1528057531625031
57	0xbfd120761532d367	-0.2676062781350112
58	0xbfa5d8c37abbdc93	-0.04266939995971444
59	0xbfb773e61f9e3501	-0.09161222717212426
60	0xbf95eba422299be9	-0.021406712136378934
61	0xbfc2d0c490aeddbb	-0.14699608864405697
62	0xbfd9e7eb3ed45b5a	-0.4047802079743882
63	0xbfcc99b8eba4a79f	-0.22344123369231014
64	0xbfb89de98551c48c	-0.09615954880588812
65	0xbfbea1b5badf3eba	-0.11965499698930673
66	0xbfc619133a1834a2	-0.17264023148201085
67	0xbfc01ed77afd7076	-0.12594121461268387
68	0x3fceac90dc908aee	0.23964129228360015
69	0xbf95c289a06070e5	-0.021249914563768697
70	0xbfd3a9de750c9e93	-0.307242979341461
71	0xbfcbf12c11f15507	-0.21829748989208772
72	0xbfc4553c8a5f8835	-0.1588512111330275
73	0x3fc901a9c0b49b4d	0.19536325368354782
74	0xbfd075edfea46117	-0.2571978556384393
75	0x3fc273fff7951ee8	0.14416503514279744
76	0xbfbf5d3c398d0728	-0.12251640706110989
77	0x3fc36751d8e4c05e	0.1515905674982631
78	0xbfdfa7346734666d	-0.4945803649767189
79	0xbfc7aa55ee086b7a	-0.18488573191356378
80	0xbf6c683f7c21d226	-0.0034676780642775183
81	0x3fb1a4b06cda11f2	0.06891920716777358
82	0x3fc034f3e5283bc5	0.1266159886294799
83	0x3faf8ad935c51ca5	0.0616062048089188
84	0x3fc4e6624c676b1c	0.16328076105750078
85	0x3fc7dcfa1f746e5c	0.18643118415717452
86	0xbfda957425dd03d8	-0.415371930099409
87	0xbfcd3224ac6a8694	-0.22809275072818436
88	0xbfb53351b9afb94d	-0.08281431945190328
89	0x3f899d53e8a83442	0.012507110154752369
90	0x3fcaff79ff5d72ef	0.21092152565952157
91	0x3f90312c9a671eee	0.015812584804534895
92	0xbfbf775cc35ae8fd	-0.12291507501041461
93	0xbfc09d9dede40db5	-0.12981008640063654
94	0xbfd3387eb9e02404	-0.30032318260106217
95	0xbfc38f22e9fa5813	-0.15280567574217283

implicit_cells.0.highway.bias f8 [12]
0	0x3fbf3d59c466238d	0.12202988667389843
1	0x3fb6b5317a830de2	0.08870228997243815
2	0xbfb676d6e86116de	-0.08775084660836849
3	0x3f94c4014c7da02a	0.020278950017569887
4	0x3fc2fefb1d089488	0.14840639989521187
5	0x3f74767c40202d73	0.0049958089384846026
6	0xbfb8e975eb4e3143	-0.09731232638131808
7	0xbfc36828255a1b43	-0.15161611388995241
8	0x3fbc8c64e9dda8af	0.11151724538436512
9	0x3fc2797a1bddcfc4	0.14433218346277787
10	0xbfb1b238f38937e5	-0.06912570901587818
11	0xbfa0167b2255ec04	-0.0314215163625349

implicit_cells.0.tpcnn.weight f8 [12, 8, 3, 3]
0	0x3fb1a31e4a399826	0.06889523803838013
1	0x3f647cbe267377cf	0.0025008882399637287
2	0x3fb0c02426a10408	0.06543184226121934
3	0xbf9e6ffb0ce662e6	-0.029724047338819747
4	0x3fc0c743305f5fcf	0.13108100759450145
5	0x3fc41932a88bedab	0.15701897840322707
6	0x3fb741dd81f6892a	0.0908487741749339
7	0xbfae74037390bf9f	-0.05947886262617818
8	0x3fb876bc04ace255	0.09556174387115253
9	0x3f831714f0c51e7e	0.009321368787495784
10	0xbf467a4b1cd7c2bd	-0.0006859652291365186
11	0xbfb2bb1a08f9736d	-0.07316744536497106
12	0x3fa08c0875237aad	0.03231836728968083
13	0x3fa4a0565a7c2515	0.04028577665855885
14	0xbfb45a9a92146c6b	-0.07950750414276946
15	0x3f7f57e31a164481	0.007652175061040657
16	0x3f9b0c9eac9c600a	0.026415328297929398
17	0xbfb01741ea20088d	-0.06285488096185272
18	0xbfa5b909ea6acb07	-0.042427358498931915
19	0xbfa09dc7a9076dc2	-0.03245376528112899
20	0x3fa96bd46e8bce54	0.049650801176451737
21	0xbfaa6b5285d7206c	-0.05160005458634562
22	0xbfb207f0f83a06aa	-0.07043367443295759
23	0x3fac109a5a81caaa	0.05481417040654908
24	0xbf9a40ec5a9cfdf1	-0.02563828757342707
25	0x3fa540358db0494e	0.041505502267812674
26	0x3f71206164a29b41	0.004181271020718581
27	0xbf9b40473d2dccb1	-0.026612389668525697
28	0x3fa84a0f6f18d626	0.04744003516354338
29	0x3f81d57325d34642	0.00870790442641856
30	0x3fb8353551780499	0.09456189383492343
31	0x3faf86b2c71411cd	0.06157454185634812
32	0xbf8a34328577c4dd	-0.012794871042361705
33	0xbfb618e1277e0c01	-0.08631713117760854
34	0xbfb40baf5626209c	-0.0783032975506352
35	0x3fa2cc6422ef92c1	0.036715630783680016
36	0x3f8d5830b3f8f13b	0.014328365795443268
37	0x3f92b50bee83a8b7	0.018268763001210355
38	0xbf8cb8a3ff8fcf37	-0.014024049030900805
39	0xbfb2e030c0e49815	-0.0737333746843379
40	0xbfa8fd8a997db0b3	-0.04880936740559729
41	0xbf95ed9bfddf7b82	-0.02141422020929041
42	0x3f9f5d7fa43d5c2d	0.030630106353182796
43	0x3fa21d498b333582	0.03537969421595745
44	0x3f84154e8e90932b	0.009806264615755808
45	0x3fa465740afc19af	0.0398365271958484
46	0x3f9fd1e8b93cbd0d	0.031074177080140198
47	0x3f7ae3b9142fb4eb	0.006564829792279551
48	0x3f6d914146b722ab	0.003609302036896208
49	0xbfb1383ab1ee06ba	-0.06726424068440454
50	0xbf8a12b0e6756f04	-0.01273096278480735
51	0x3fa2e8ed13bb6533	0.03693333497876452
52	0xbf7d7de81950e4de	-0.007200152050296197
53	0xbfae1188f36205ee	-0.058727531156374954
54	0xbfab3d5ea1046a59	-0.05320258822958541
55	0x3fb5cba871fe0b63	0.0851388243009246
56	0x3fa34ee9bbb01496	0.037711433564291116
57	0x3f95c894d7330c6c	0.021272969851235876
58	0xbfd6e58905a51451	-0.357759719383755
59	0x3f82e63c0b87d889	0.00922820005596871
60	0xbf9cfc2ce0262bb8	-0.028305722409225104
61	0x3fad072aac68e6e8	0.056695302530398284
62	0x3fb59196d21d5835	0.0842527640319027
63	0x3f939e11bdf57ab7	0.0191576740447725
64	0xbfbb42b675e0664c	-0.10648670556874967
65	0xbf88bec68717922d	-0.01208262538688939
66	0x3fa2ba2ede5abbcc	0.036576714175104635
67	0xbfcf98a839cd833e	-0.24684622595216327
68	0x3fb9ad1aaaaa5658	0.10029760996470694
69	0x3f95994211cb431c	0.021092445694026116
70	0xbfb4e830ba77616d	-0.08166794350052493
71	0xbfada31140309d51	-0.05788473042076226
72	0xbfaf52de9c020407	-0.06117911962883942
73	0x3fb3cd2df94c6f0b	0.07734954201117376
74	0xbf428da3867a575d	-0.0005662010634803583
75	0xbfa4dcf95124da2e	-0.040748397021549074
76	0x3f920d9b34055584	0.01763002877244936
77	0xbf8f01baa396605d	-0.015140016667644024
78	0x3fa8f17339a9f8b5	0.048717118062073274
79	0xbf9fb1265cd0aaf3	-0.030949210562691353
80	0xbf8c4e418bc5bd9b	-0.013821136549011117
81	0x3fb0ff4659b3483d	0.06639518442105526
82	0x3fa03aeb93533fdf	0.031699525579483405
83	0xbfa94c42e0d10e08	-0.0494099521097518
84	0xbf8b3dfdf53ae79d	-0.01330183415062774
85	0xbfb4b797809fc9cd	-0.08092638864744757
86	0xbf81e6dd43fd9438	-0.008741119992644028
87	0xbfb5cad091508047	-0.08512595699039692
88	0xbf99f254e1f0ad2c	-0.02533848408726873
89	0x3fb0703831e402da	0.06421233385118388
90	0xbf9aa85e9513035a	-0.026032903527041774
91	0xbfbc5ff1e42b25a1	-0.11083900280495708
92	0x3fa706dcc7c1da47	0.044974231132915814
93	0x3fa8772a5c0a5195	0.047784160361661034
94	0x3fb25305f83203a1	0.07157933530289863
95	0x3fa57ca42c91da2f	0.04196656269134668
96	0x3f96800fbed81d5b	0.021972890876012268
97	0x3fb227dc3168b0d2	0.07092071729920527
98	0xbfb797ddec67154f	-0.09216105481671842
99	0xbfa9c07994ddf16c	-0.05029659216140456
100	0x3fb8b6b6013a6805	0.09653794794067501
101	0x3f968867015ebce4	0.02200470872747652
102	0x3f91f42e752aaf69	0.017533040906229234
103	0x3fae0c049c8d7115	0.058685440168775006
104	0xbf9b391c18b93be0	-0.026585043915755224
105	0x3fa04af9e7ea61dc	0.03182202297211109
106	0x3f9b330b1cc92b34	0.026561902648874994
107	0x3f7f4c62165a961c	0.007641204026787498
108	0x3f95f34627818912	0.021435829316382167
109	0xbfa6626607e027c8	-0.04371947141778737
110	0xbf962ade677dfed2	-0.021647906366978394
111	0xbf9abf84aec49073	-0.0261212093038385
112	0x3fcd1a9043c93bea	0.22737315473429415
113	0x3fad3e90a1365716	0.057117957762939195
114	0xbf9041d509bfb0e1	-0.015876129837054335
115	0xbfb7abc679852dc5	-0.09246483294298631
116	0x3f73426fc28dbc7c	0.00470203071823427
117	0xbf8ae7805462d11d	-0.013136866164452027
118	0x3fb7c382e5b9f823	0.09282701595836378
119	0xbf4676bf03652b09	-0.0006855423623986788
120	0x3f873a06fd032d92	0.01134114703781711
121	0x3fabb7b6b21756ad	0.05413599895443375
122	0xbf97146ce0a7451b	-0.022538853847270262
123	0x3f904b573a14b985	0.01591240207670232
124	0x3fb09598ea53bdf4	0.06478267403485188
125	0xbf8f55906f331eea	-0.015299919503731958
126	0xbf93e3951a792b2d	-0.019422845593264505
127	0x3f92492e80089551	0.017857290806337748
128	0x3f9da5a801926325	0.028952241035400967
129	0x3f9086fc581a585c	0.016139929654478954
130	0xbfd17e02ddbe2126	-0.27331611303863423
131	0x3fa28f24f620c9ee	0.03624835495465449
132	0xbfa22e09e557081f	-0.03550749706802513
133	0x3f862c1a82088d14	0.010826308339409375
134	0x3f84746f1e1050eb	0.009987705330822346
135	0x3fa587c25450ef2f	0.04205138472795366
136	0xbf9a70cefb238f3a	-0.02582095535116411
137	0x3f83819fae73ce07	0.009524581443179704
138	0x3f733a4414f4feec	0.004694238610056561
139	0xbfd9e08cf9e038e5	-0.40433048631611107
140	0xbf68a0a021fa8350	-0.003006279715762984
141	0x3f78e21c28406c79	0.006075010289374843
142	0xbf8d7e7d30d3683f	-0.01440141492132707
143	0x3fa2a24a740c5559	0.0363944307957051
144	0x3f8f114ca413e022	0.015169714696170958
145	0x3fb159fa9b2c4d5c	0.06777921951679872
146	0xbf82095814e72b8e	-0.008806884897145453
147	0xbf71a4b255422509	-0.004307457555236435
148	0x3fbe4b5b59e60cce	0.11833735413351862
149	0x3fbbe1da9707f997	0.10891500651630391
150	0xbfa656cdf7fbb8f5	-0.043631016274831604
151	0x3f86edb34424f354	0.011195564763164668
152	0x3f7c35ab01a92225	0.006887119287576603
153	0xbfaf1b23920b9df9	-0.06075392873554714
154	0xbf9148115252677a	-0.016876478814630037
155	0xbf61dc9363d144b9	-0.0021803740224091953
156	0x3f7a57e2405f1f17	0.006431468767864399
157	0x3fb80d6778a95622	0.09395453162991221
158	0xbfaccfedb0b1d9da	-0.05627386838834854
159	0xbfa473bc85a46d4e	-0.03994549876571317
160	0xbfb8b32ef85098a3	-0.09648412287114864
161	0x3f689640872d493e	0.003001333266561406
162	0x3fa16186437594ab	0.03394717763402729
163	0xbfa7360b9824ff27	-0.04533420784218683
164	0x3f8d1b5a3c5149c2	0.014212326970810877
165	0xbf81143bdcfef8ed	-0.008339374238741171
166	0x3fc5827fe60b1a6b	0.16804503185831562
167	0x3fab7ea4996aebe9	0.0537005841519756
168	0x3fb65e5768c6a78c	0.0873770361710326
169	0x3fb0960bd083b83b	0.06478952255903973
170	0x3fa564e0ae62592e	0.0417852604743295
171	0x3f9d350b7b0ce705	0.02852266253032722
172	0x3faed35c671c186f	0.060206306063307895
173	0xbfaeadebd594894c	-0.059920663663677404
174	0x3f90d3fe3591963a	0.01643368913609875
175	0xbf681b0de403abcb	-0.0029425879766810984
176	0xbfb3eafd9a3b4feb	-0.07780442252561641
177	0xbfab201eb9acdd48	-0.05297943131011579
178	0x3f95ca60e6c6eb1c	0.021279825292121676
179	0xbfa8151a977fda4a	-0.0470360097823926
180	0x3f564512cfab3267	0.001359241838758818
181	0xbf7931750553ca90	-0.006150681602991384
182	0x3fb3ed1fa0c904a7	0.07783696818752849
183	0x3f85466f5c735ebc	0.010388250359411592
184	0x3fc20b8442859ca9	0.1409764599622794
185	0x3fb40a933ed3df5f	0.07828636440160384
186	0xbf6e5a2da93030e8	-0.003705109769276505
187	0x3f983a865943af68	0.023660754392877875
188	0xbfa2f1f3961cd8b3	-0.037002193521787595
189	0xbfa4d73c3e6b4e2d	-0.0407046152301088
190	0x3f9e82d9a27fd4f3	0.029796028655216977
191	0xbfa1fe87b4713120	-0.03514503553069148
192	0x3fa9dd2802e081fb	0.0505154136192267
193	0x3fae66732a9a1c97	0.05937538046878748
194	0x3fb0b513c9010aa3	0.06526302010846989
195	0x3faf63fbb97bb3e1	0.06130968703460105
196	0xbf940b630157fe9c	-0.019574686963095375
197	0xbf8d29513f163b9c	-0.014238962877042564
198	0x3f73146cb26b6ab6	0.00465815028902721
199	0x3faa5ea6f5ace038	0.05150338887182254
200	0xbf88d71aab1a6bf1	-0.012129028650909009
201	0xbf827bcf13e7c66f	-0.009025209231342061
202	0xbfca98f00b78a999	-0.20779228744625014
203	0xbfb5f27be9980718	-0.08573126271224074
204	0xbfb180e3e8cf1c3b	-0.06837295945943904
205	0x3fa8cbec1564ea29	0.04843080292853969
206	0x3fa9b9f9695d7b43	0.05024699603267504
207	0x3f833f3ebf0ab57b	0.009397974209913276
208	0xbf96145d9256ec29	-0.02156206327138591
209	0x3fafb2f30fcae01d	0.06191215102938961
210	0xbfa4aa0def5ad5ee	-0.040359912365072734
211	0xbfdc111a346a3f23	-0.4385438453546035
212	0x3faf94c5c02a744b	0.06168191881918313
213	0x3fa1d9309039755e	0.03486015091469129
214	0xbfb773f1fd5bcecc	-0.09161293445122992
215	0x3f9edace7258a8a4	0.030131555298944193
216	0xbfadc91ef2118f74	-0.05817505555094629
217	0x3f8aa24daded4a28	0.01300488173516097
218	0x3fb27e3740fde39e	0.07223840080940966
219	0xbfa3ea9bb6db908d	-0.03889929396771761
220	0x3fb6b065f31f6a0b	0.0886291235505398
221	0x3f8b00ba9389a9e3	0.013184983851904647
222	0x3fb6f8ff8550e884	0.08973690991197897
223	0xbf4df55eb1c90497	-0.000914260137115391
224	0xbfb699daeb329e4b	-0.0882851433003619
225	0xbf835326c3edfc5d	-0.009435942510888912
226	0xbf82e0183e0414c0	-0.009216489212585777
227	0xbf9a55422a13e4df	-0.025715860193462056
228	0x3f9665b320a0b885	0.021872328630870647
229	0x3fc42dc4365ae41e	0.15764668134741638
230	0x3f9492902953dcc3	0.020090343973575352
231	0xbfa20323ebaddb9d	-0.03518020870153935
232	0x3f920c200c5b4a95	0.01762437892359488
233	0x3f997880c11ed5be	0.02487374476159742
234	0xbfa3e26dd9967381	-0.038836891947744874
235	0xbfb0afad05f5463d	-0.0651806010767126
236	0xbf722a7bdf930698	-0.004435047035430316
237	0xbf8aab367d2cd8ac	-0.013021875090640421
238	0x3faff5eda48e5a33	0.06242315896740926
239	0xbf99efc13ef59324	-0.025328654735307002
240	0xbf999edc6de871f7	-0.02502006932091835
241	0x3f859e0ecf7ee8a1	0.010555377681033486
242	0x3fa1ac0e7afec9cc	0.03451581241042198
243	0x3fb9aa0fa3280448	0.10025117619808654
244	0x3fb18a3cc746725d	0.06851558556668054
245	0xbf934a77f69b8b6b	-0.01883876269028965
246	0xbf727b7caadd0959	-0.004512297613305038
247	0x3f9eaaeb9240db14	0.029948883821101793
248	0x3f9a33a869679de2	0.025587684090991554
249	0x3fb54bf21d63558a	0.08319009034615568
250	0xbfb6440f1d17ab03	-0.08697599849953623
251	0x3f940ba3ba821090	0.01957565141539469
252	0xbfb180448e46996e	-0.06836346124200585
253	0x3fad26193549930d	0.05693129325371702
254	0x3fa15bcc65ef26a2	0.03390349144281159
255	0x3fb973b10507bebe	0.09942156193551008

implicit_cells.0.tpcnn.bias f8 [12]
0	0xbfbea757bb99dc8e	-0.11974094705679958
1	0xbfb652a6c57cf218	-0.08719866105543195
2	0x3fb704a5179ee91e	0.0899146254222711
3	0xbf9435f173825fd8	-0.01973702685845055
4	0xbfc2cfc152f76b74	-0.14696518469903774
5	0xbf6f54437fbfa528	-0.0038243597355075605
6	0x3fb934b334b1ceb7	0.09846038853157323
7	0x3fc39e60b2a5e4bb	0.1532708046250145
8	0xbfbc51072622575f	-0.11061138802537361
9	0xbfc261296422303a	-0.14359013928731362
10	0x3fb1a26e8c76c817	0.06888476304337164
11	0x3fa08b0975aa13f1	0.032310767758680366

implicit_cells.0.ped.feat.weight f8 [2, 2, 3]
0	0xbfd5d8114bf0f838	-0.34131271759168014
1	0xbfd1b948f9113a33	-0.2769339020059391
2	0xbfba2a4a23bfc96f	-0.10220778820784003
3	0x3fcd49cd8f0b65ca	0.22881478771777913
4	0xbfc81f424327c062	-0.18845394400659915
5	0xbf941fbea02db9f7	-0.019652346159483938
6	0xbfd851019f5e652a	-0.3799442344985261
7	0x3fd9c410fe83b25f	0.4025919423573096
8	0xbfb59ff825d7780b	-0.08447218822354345
9	0xbfd3835472b9a8e0	-0.304890739475594
10	0x3fd8053795fd85e6	0.37531842849247565
11	0x3fc85a8cc133ec9f	0.1902633612988653

implicit_cells.0.ped.feat.bias f8 [2]
0	0x3fcb51c1a627b6a0	0.2134325085930202
1	0xbf90d962a00c45d6	-0.01645425893645388

implicit_cells.0.ped.highway_input.weight f8 [2, 2, 1]
0	0x3fe1b708f39abe0d	0.5535931356334359
1	0xbfde97f19c657df0	-0.47802391312686066
2	0x3fd5a4be698baab6	0.33818016345200463
3	0x3fca8e8875c5202c	0.20747476339806903

implicit_cells.0.ped.highway_input.bias f8 [2]
0	0xbfda9cd1b948ad55	-0.4158214864171062
1	0x3fc42aaf787d6f7b	0.15755265601444166

implicit_cells.0.ped.highway.weight f8 [12, 8, 1]
0	0xbfc7eddf0b872798	-0.18694675505531388
1	0xbfd1be5814059b53	-0.2772426791693096
2	0xbfca0ad38188a7a6	-0.20345538926022505
3	0xbfd415cea575da23	-0.31383100660551316
4	0x3fd2d6fb94788402	0.29437150477502894
5	0xbfc082d65b3b864c	-0.12899283842766562
6	0xbfb49f0423941401	-0.08055139416326541
7	0xbfd0d9805cffdc2c	-0.2632752330968653
8	0xbfcd2449dc88b883	-0.227669937784814
9	0xbfd088ba9fed20ae	-0.25834527604866764
10	0xbfcb1e0ac8d2e6d5	-0.2118543129525309
11	0x3fd5cfa7a1e54a7a	0.34079924402355
12	0x3fbae3b657e4511a	0.10503711362645554
13	0x3fa89ffc26c9539f	0.04809558843104544
14	0xbf5d360e8a1f2aea	-0.001782907675521523
15	0xbfb5dccb25b730d4	-0.08540029211798422
16	0x3fd291ee3026b850	0.2901568861224222
17	0x3f98c8207afa948b	0.024200923448593186
18	0xbfc95dea5ba264c5	-0.19817857240994932
19	0x3fd160fdebe68774	0.27154491459997776
20	0xbfc6614f3c13765c	-0.17484465058707854
21	0x3fc51328e55e099f	0.1646472091634452
22	0xbfd446c6d670718e	-0.3168198675282604
23	0xbfc4ce2a0bda26f2	-0.1625416334030017
24	0xbfd37fc9c8199b64	-0.30467457333582204
25	0xbfd43426bcfc728a	-0.31568306403804824
26	0xbfa0e42ca5b0fb01	-0.032990832544319566
27	0xbfb688b33acdf5fd	-0.08802337823541247
28	0x3faccb4c28bc06d2	0.056238536808462705
29	0x3fd243566e36157f	0.2853599621087923
30	0x3f9ae5ff463b1a33	0.026267994557907137
31	0x3face8dbdde15920	0.0564640720701155
32	0x3fd0f5aa637fd468	0.26499423710567394
33	0x3fd0e5810d93d198	0.26400781942290896
34	0xbfc728646fe2962d	-0.18092017615451664
35	0x3fc92c68f53d975c	0.1966677854026625
36	0x3fc8fba3bc86ca8e	0.1951794310130776
37	0xbfd705e651498131	-0.3597350877589803
38	0x3fc415e6234bbfff	0.15691830371315516
39	0x3fd03c96be8ff8f6	0.25369804963692333
40	0xbfd16962f55156ba	-0.2720572848969415
41	0x3fcd0f33ec1edb59	0.22702645329783414
42	0x3fb4755f9a367c49	0.07991597666703955
43	0x3fd2f360e9bf52a4	0.296104648846532
44	0x3fb684c0d25e27a8	0.08796315322811543
45	0x3f84794699af8366	0.009996940198051706
46	0x3f9f45e187c02a61	0.03054001227432435
47	0xbfadc05b9deacff1	-0.058108199145323065
48	0xbfcb05b9cead22ef	-0.21111223785035046
49	0xbfd38746d62c0bda	-0.30513163485755757
50	0x3fc841c6accdf583	0.18950732648583477
51	0x3fd4ff8f1c3bfc89	0.3280980849958231
52	0xbfc65e9aa87e77d4	-0.17476208903548118
53	0xbfd37032cb3b73cb	-0.303723047703724
54	0x3fc406cac28fe347	0.15645727634525938
55	0xbfa31029a21de8e8	-0.03723268608060143
56	0x3fc08beed4be7a4f	0.12927041423695804
57	0xbfd5e795cefd7696	-0.34225983823658035
58	0xbfcc0dce3b38bb86	-0.21917131320648425
59	0x3fcad5a8822520e5	0.20964533190477322
60	0xbf7d0ca8b5cdd12c	-0.007092150711163019
61	0xbfc9aeb6c1543ec0	-0.20064434471031767
62	0x3fbd26e7cfab1d35	0.11387490100888871
63	0x3fa5e22b7cd41b38	0.042741164195879866
64	0x3fcc54746ca0b22d	0.22132735542381124
65	0xbfd51134b68be585	-0.3291751654320126
66	0x3fba305c3857e3bc	0.1023004186207705
67	0x3fbef0e79e847b72	0.12086341495567668
68	0xbfc7dfddf3be6971	-0.18651937867691573
69	0x3fc92d3a3af0f4d2	0.19669273260107062
70	0x3fae3bac8de1622c	0.05904902679384735
71	0xbfc34f2e5fa7727c	-0.15085391684160132
72	0xbfc65c8d8037d8b2	-0.17469948540355557
73	0xbfca0f7805b4101a	-0.20359707144246003
74	0x3face3e21523f187	0.056426110344520324
75	0x3fbc1578ba3d28f9	0.10970263048981001
76	0x3fb696a92da38ed2	0.08823640217047604
77	0xbfd12ef80c6e938e	-0.26849175657326263
78	0x3fbf7e600dfad5c0	0.12302208272270487
79	0x3fb95176a4bd07b7	0.09889928361829346
80	0x3fc287921225de4d	0.14476228605393474
81	0xbfb57fc95544ec1a	-0.0839811165978265
82	0x3fb848390c9d6e50	0.0948520332144025
83	0x3fd0eeefb25d8e79	0.26458351534368024
84	0xbfd1ffb8d79d6f13	-0.28123303466939936
85	0x3fc47f963a98dfb2	0.16014364110173812
86	0x3f7c36c0edb40685	0.006888154627860414
87	0x3fbb9cddbfdb9f8c	0.10786233839064446
88	0x3fc63dfa7949ad17	0.17376643106704456
89	0x3fc8bfaf06d19a1b	0.19334972222277788
90	0x3fbebc918853d853	0.12006482675846657
91	0x3fd3db1a61ea3fbd	0.3102479892922892
92	0xbfba6bdf3fb3ced3	-0.1032084970973373
93	0xbfc774d54023bbb0	-0.18325296050849493
94	0xbfb3b712dc3e56f3	-0.07701223256148264
95	0xbfb3c82bce933544	-0.0772731189092229

implicit_cells.0.ped.highway.bias f8 [12]
0	0x3fb85e1915b79500	0.09518582134440479
1	0xbfc5f0eab30a4eb9	-0.17141469709587456
2	0xbfca70d70f80abcb	-0.20656860596622403
3	0x3fc0920751d7efe0	0.12945643898262826
4	0x3fc7fbe54abd5774	0.18737474584002778
5	0x3fbcc1def8f5c65d	0.11233323648573319
6	0x3fcd9f5056888f94	0.2314243719603125
7	0xbf93f849b40c5374	-0.01950183068682372
8	0xbfc2000f83497dca	-0.1406268492746519
9	0xbfafdfd0c6fef2fa	-0.06225445202969655
10	0x3fcc2ee5ba16027b	0.22018119417409196
11	0xbf83df5cc3608e01	-0.009703373634756042

implicit_cells.0.ped.tpcnn.weight f8 [12, 8, 3]
0	0xbfac049e92887aeb	-0.05472274340376323
1	0x3fadfc0511e361ee	0.058563383515949016
2	0x3fb4f63f6fd4a79e	0.08188244323960567
3	0xbfc0ec7c2fae5973	-0.13221695259262453
4	0x3fa852475fd32563	0.0475027374719257
5	0x3fa10f17b28e1f80	0.03331827215794103
6	0x3fb9347b1897bb4c	0.09845704412849193
7	0x3fc0b81d1e77585a	0.1306187056313231
8	0xbfabeb2ab57e3efd	-0.05452855554096734
9	0xbfa865e8b41c95ab	-0.047652503954206914
10	0x3fc6a90cd5144bb9	0.17703400043737164
11	0xbfc113c2e7e6b9b4	-0.13341556857399228
12	0xbfa2e78e87b52938	-0.03692288786494874
13	0x3fc05e8548f10812	0.12788454114530673
14	0x3fc4103b2766b104	0.1567453329456684
15	0xbfc72449ec5e6f62	-0.18079494515847744
16	0x3fbfcb348988f389	0.12419441564357049
17	0xbfa19683c8336fb1	-0.03435146159037517
18	0x3f91be97c582ea29	0.017328616552484775
19	0x3fc0b523de35f5f0	0.130527957440719
20	0x3fae81f71975cff6	0.05958530603211891
21	0xbfc33a10d9362f85	-0.15020952802694523
22	0xbfc125f0d9ffb866	-0.13397036213376906
23	0xbfc51e9ed80094dd	-0.16499696299539482
24	0xbfc9ae90926bc28e	-0.20063979291400752
25	0xbfb70401f91170f3	-0.08990490275158773
26	0xbf78feec857cbac4	-0.006102489387372404
27	0xbfbe2de9e749de3c	-0.1178880872411065
28	0x3f75b281e4b7d0c5	0.005297191044054188
29	0xbfafc8b7f0fba553	-0.06207823578535945
30	0x3fa6c959a4cdd4f5	0.04450492989318803
31	0xbfa41765e34b9bbc	-0.03924101256944065
32	0x3fc5d60961aa269d	0.1705943800810034
33	0xbf842db558b988f1	-0.009852806825794565
34	0xbfc7c57e9c356b10	-0.18571455600143638
35	0x3fc52c4faf944b77	0.16541477273184643
36	0x3fa3181d57e8da63	0.03729335497012156
37	0xbfba8fcae81baee6	-0.10375660101606918
38	0x3f3fe5d9f6287a12	0.0004867226727202366
39	0xbfc5e6d39ee7a67d	-0.17110677012469813
40	0xbfc5ac725e4dab25	-0.16932515720994804
41	0x3faa1289c0f2de3d	0.05092268448191504
42	0xbfc41f17bc7a017c	-0.15719887450178394
43	0xbfbd0c8142287cad	-0.11347205987157123
44	0xbf992faf91d238e3	-0.024595969462603128
45	0x3f83133061208bfc	0.009313943828663789
46	0xbfa9b3fdcb6e61bd	-0.050201350291163994
47	0xbfacadf29b5415b0	-0.05601461549853626
48	0x3faa407eb3ea5fa2	0.051273307287544215
49	0x3fba711a009ae189	0.1032882930256901
50	0x3fc711f8dfa6e4e6	0.18023596687797933
51	0x3fb37f3ca8d6c764	0.0761602318005124
52	0xbfb009fe21415adc	-0.06265247642418664
53	0xbfc3fb3cdf22a801	-0.1561046685722545
54	0x3f9ebe48017f481c	0.03002274045122287
55	0x3fb2717b68bb366a	0.07204409892002564
56	0x3fc9b1dd98598008	0.20074052752443117
57	0xbfca95d62df99ef5	-0.20769765133740462
58	0x3fc20aa517cd0ec0	0.14094985639723312
59	0x3fc51399d3cfbbb9	0.16466067163807255
60	0xbfc74baf21fb6ab5	-0.1819971958091934
61	0x3fc306b3c3ec89a4	0.1486420351657901
62	0xbfc2df8127df519c	-0.14744581648723176
63	0xbfc88682f0a48a9b	-0.19160496473439967
64	0xbfa7afe26a87d93c	-0.04626376676962926
65	0xbfbd12abf9303624	-0.11356615861605995
66	0xbfae94e0acee7b59	-0.05972959624272418
67	0xbfb78a9579c1c639	-0.09195837233144112
68	0xbf9952bd617f8f75	-0.024729689670393868
69	0x3fbda2a7b4b6a7a5	0.11576316987944198
70	0xbf9d87c23ed137a3	-0.02883819111257647
71	0x3fc2e18c74773731	0.14750819861222333
72	0x3fb33fc13b528cf2	0.07519157121946643
73	0xbfc3f4af103336c4	-0.15590465823190958
74	0xbfc3508c32c86b06	-0.1508956191981598
75	0x3fbc9c08169349f4	0.11175585318714082
76	0xbf8ce8b9df8e5297	-0.014115764746557331
77	0xbfb5f56bbc77d58d	-0.08577607489845303
78	0xbfb96b884e65424c	-0.09929706491426166
79	0xbfc3d75dc96c3eba	-0.15500995955561853
80	0x3f7f990637b7ec41	0.007714294707962089
81	0x3fa5c01e24caa886	0.04248136710278154
82	0x3fbc989a65320a03	0.11170353861420072
83	0xbfb7c0c5fd12aea2	-0.09278523853816492
84	0x3fc2f5c2bd61c682	0.1481250214306336
85	0xbfaf2528f743f930	-0.06083038347604697
86	0x3fb24bb9e9d135ad	0.071467990478786
87	0xbfb4a7538c0ba28d	-0.08067819756582591
88	0xbfb761a32727aa15	-0.09133357721263054
89	0xbfc5940c8a039ca6	-0.16858059634180228
90	0xbfa5b6faac5eadd6	-0.042411645451774824
91	0x3fc23ea5f0c76338	0.14253687149791872
92	0x3fbc4bb10daca16c	0.11052996238561769
93	0x3f98d7e0677f626b	0.02426100379656974
94	0x3fc66e6bb778565e	0.17524477442263992
95	0xbfbbb5d6f534214c	-0.10824340330521415
96	0x3f92bf82c69959a5	0.01830868088867423
97	0x3f950576b7fd46b7	0.020528655032939293
98	0xbfc39798a1695cdc	-0.15306384927200767
99	0xbfb267dc02d9ff5c	-0.07189726895921694
100	0xbfbf8bffc9b0b9d7	-0.1232299678237959
101	0xbfab19b64987238b	-0.05293054244572833
102	0x3fa4fe77b5d6048a	0.04100393385579888
103	0xbfc4c0660fe2962d	-0.16212154174461216
104	0x3f95086653b29090	0.02053985486840354
105	0x3fbf45308bdfd0ec	0.12214950003528074
106	0x3fb608792a7b2ecc	0.08606679236543896
107	0xbfa0f1d066d6cde9	-0.03309489493713242
108	0xbfbaf6afd5d59845	-0.10532664270940113
109	0x3f90ea47e4365413	0.016518710426300553
110	0xbf94194e7be846f5	-0.019627786934569753
111	0x3fc025557ebe4b20	0.1261393421997008
112	0xbfba4c8c0526049d	-0.10273051381774896
113	0xbfb2dce87116d3bc	-0.07368328820196174
114	0xbfc4ad5ab0defb24	-0.16154035221367125
115	0xbf503b6d5a1fff56	-0.0009907310382004284
116	0xbfba0e3591834c65	-0.10177931597290664
117	0xbfb1f8423d49ab83	-0.07019437786372688
118	0x3fa05f84947fc7f9	0.03197874367459969
119	0xbfc3ae22d7f4eece	-0.15375171227230172
120	0xbfc4445cc1a638e4	-0.1583362527421236
121	0xbfbeaf8c15455b0b	-0.11986613768872816
122	0xbf74b94fe3d1cad2	-0.005059539861678801
123	0x3fc72438605c2094	0.18079285340377693
124	0x3fc54c60ac1edb59	0.16639336017916653
125	0x3fba70a2096434ad	0.10328114251406602
126	0xbfc42e23982d9bfe	-0.15765805178236286
127	0xbfca6d61e2e4c1c5	-0.20646308497226876
128	0x3fc7a0e1ae9eb331	0.18459721590388647
129	0xbfad1bc2fd480434	-0.05685242978871266
130	0xbf8eeb6a3815aa7b	-0.015097455822531849
131	0xbfa3b17c3327ada8	-0.03846347927523236
132	0xbfc56147f2c41f58	-0.16703128198445927
133	0xbfb9298dada1d858	-0.09829030503337444
134	0xbfc814285016c919	-0.18811515722843167
135	0xbfa85ee82fe114ca	-0.047599082798606654
136	0x3fc3b3d8b59af82f	0.1539259802574988
137	0x3f74045094fc85f1	0.004886927388527238
138	0xbfc7e5e4df7c2edf	-0.18670330917699737
139	0xbf9b66e1f83fd59e	-0.026759653832376544
140	0xbfaf1047ae6db56f	-0.060671081583545276
141	0xbfc3d21103fb5920	-0.15484821981835584
142	0xbfa80e767deacff1	-0.046985342856174735
143	0x3fbeae1feab6949c	0.11984443168928965
144	0xbf78abb6cef349d2	-0.006023134322463668
145	0x3fc18c499152dd11	0.13709373088725177
146	0xbfc105f5a626ade9	-0.13299437153669594
147	0x3f9b61f4c0d0c155	0.026740860241433257
148	0x3fa9394e4e9fa144	0.04926533422241389
149	0x3fc0e1bf42ac4c3b	0.131889255099482
150	0xbfb14df08abc9d40	-0.06759551417473109
151	0x3fc1c19baccdf583	0.13872095048638408
152	0x3fb1c6f15f078d01	0.06944187707954443
153	0x3fc1ef86132d98d5	0.14012218414717972
154	0x3fc991a8d877f91c	0.19975767678983736
155	0xbfc5b5f4f516b996	-0.16961538283562722
156	0x3fb638496ef20339	0.08679636915804857
157	0x3fc392d6d781882c	0.15291867754700783
158	0xbfc08714c56d60a6	-0.1291223491668962
159	0x3fc34ea781eeb4ee	0.1508378395496161
160	0x3fc81b8809891893	0.18834019151308165
161	0x3fc00f945dea5224	0.1254754503794554
162	0xbfc03a95398c1864	-0.12678780851291827
163	0xbfc0366f1d701cb9	-0.12666119515799837
164	0x3fb3c029cd30a6c4	0.07715092906496596
165	0x3fc66d56ab6fa5d0	0.1752117478456925
166	0xbfc17428e0877a34	-0.13635741198864226
167	0xbf7a7e1106badddb	-0.0064678826417358904
168	0x3fc34d610801380f	0.15079892054421903
169	0x3f7c594af7cf4ab6	0.006921093791748481
170	0xbfadf3cbc77a104b	-0.058500640964695615
171	0xbfc95160a5a75b74	-0.19779594505845532
172	0x3f857732e0512c33	0.010481259794820818
173	0x3fba93c43185eefc	0.10381723603307685
174	0x3fb08af3041a03d3	0.06462019777428844
175	0xbf9997fe79c5dbfc	-0.024993873770167582
176	0xbfa15dc3a6176c79	-0.03391848947986715
177	0xbfc82d22452e707a	-0.18887737634657126
178	0xbfbd847e9bb5be31	-0.1153029565955357
179	0x3fb0fa6cc0c32a32	0.0663211794482457
180	0x3fc548142538f4fc	0.16626216714386277
181	0xbfafd4172eb9ba14	-0.06216499753360352
182	0xbfc1cf452c62c9d7	-0.13913788478164577
183	0xbf943c8d46e8bf7e	-0.01976223702712287
184	0xbfb05f4a22a87d8a	-0.06395400377413388
185	0xbfc47e357fe8b988	-0.1601015924984035
186	0x3fc087ce29b73fc6	0.12914444958596344
187	0xbfbb40f11054e2ca	-0.10645968102188444
188	0x3fa0a6a18c3353db	0.03252129398757805
189	0x3fb53fc453bfa686	0.083004255720562
190	0x3fc573953f3506db	0.16758981310163432
191	0x3fbb043472946c99	0.10553291127546273
192	0x3fb5f752254d50da	0.08580506716436123
193	0x3fbccf3fd9416474	0.11253737501228206
194	0xbfa883a8d3262e13	-0.04787948205475003
195	0xbf9471ec5fcca7f6	-0.01996583304131857
196	0x3f8d9dd9ae834eae	0.014461231840335511
197	0xbfb9616c74c1e216	-0.0991428170253886
198	0x3fb2557dd998b882	0.0716169983140578
199	0x3fb0be309857e3bc	0.06540206641501717
200	0x3fbce722e3a3b9a5	0.11290185983282315
201	0xbfc632480ea4ae80	-0.17340946879390984
202	0x3f963d2b1a11edf1	0.02171771380061033
203	0x3fb864506e9ca7b7	0.09528067303167985
204	0x3fa9272ca0002e6f	0.049127001315437784
205	0xbfbdac91477cd2b9	-0.11591442103674411
206	0xbfa539854acf6864	-0.041454472906210765
207	0x3fc2831aaf4870e4	0.14462598379839797
208	0x3fb1724275e1e9b0	0.06814971330633202
209	0x3fa35bbb04b1a90e	0.03780922348308212
210	0xbfb6b9ee0c4bf628	-0.08877456474507339
211	0xbfbd516f190f4eee	-0.1145238338643215
212	0x3fc926d3a3e56b79	0.19649739744894726
213	0xbfa77b06bf6b1bf1	-0.045860491625312146
214	0xbfc2f4563fa7727c	-0.14808157070264716
215	0x3f9c6bca6a8e27c0	0.027754938844317456
216	0x3f97e12d695a04f0	0.02331992106929176
217	0x3fc562113fc8274e	0.16705527891491062
218	0xbfa83216f85f778a	-0.047257154292068185
219	0xbf9afe4c1bea13cc	-0.02636069221854935
220	0xbf8940651b41015e	-0.012329854864333963
221	0xbfc86466826ce457	-0.19056397789407484
222	0x3fc72c16e0fb3a10	0.18103300080697737
223	0x3fae968cd523f187	0.05974235631763052
224	0x3faab8870167df75	0.05218908207092358
225	0x3fa9342f69377c24	0.049226266473617636
226	0xbfb0fc78a5c2d707	-0.06635240599538515
227	0xbfc621f18ec393ba	-0.17291087599656213
228	0xbfb31ec19b15b2d1	-0.07468805347680109
229	0x3fc689cd66d1c760	0.17608039398651965
230	0x3fac22843311ec69	0.05495083926594974
231	0x3fa924eb0085a81c	0.04910978680966613
232	0xbfc8ce8ab8dd26fe	-0.1938031580596586
233	0x3fb209e277496e76	0.07046332752491388
234	0xbfc96fc60630e2f3	-0.19872355749409784
235	0x3f90ba3b77eb5755	0.016335419840138716
236	0xbf729b5271e96beb	-0.004542657900482343
237	0xbfa09289b551c178	-0.03236799562808107
238	0xbfc05ed65da17c1f	-0.12789420673195281
239	0xbfc27759725edba1	-0.14426725468157733
240	0x3fb83914d9b51a72	0.09462099375842017
241	0x3faf634e08977956	0.06130451063994495
242	0xbfc29cf8a1d1f304	-0.14541538144467137
243	0x3fc60f88a57fb6ad	0.17234905320167596
244	0xbfbd647dd544ec19	-0.11481462914245845
245	0x3fa7f7e7baf11be5	0.04681324154858383
246	0xbfc2b7b7b152fe52	-0.14623161466987483
247	0xbf985628ad8a46a3	-0.023766170112657147
248	0x3fc17cb750b65ebf	0.13661853257212006
249	0x3faf3f1ebe3d241f	0.06102844307185528
250	0xbfa66ce02d138c74	-0.04379940557716902
251	0x3fc573370996ce74	0.16757858246056723
252	0x3fc86ab1dfb949ab	0.19075606750500404
253	0xbfb2db9a3e75bc33	-0.07366336846256231
254	0x3f97171473f1865b	0.022548980309130644
255	0xbfb18cec16cb6993	-0.06855655247219365

implicit_cells.0.ped.tpcnn.bias f8 [12]
0	0xbfb4fcdc04486af3	-0.08198332886278674
1	0x3fbc016b59eb62ae	0.10939665742206259
2	0xbfb051201f015785	-0.06373787648166569
3	0x3fb46ec3a3afdf93	0.07981512781395698
4	0xbfc37fe5f542a88c	-0.15234064555744842
5	0xbfba2db3370a39ae	-0.10225982755421256
6	0xbfb206de4aeee0c4	-0.07041730241224103
7	0xbfa43ac41a0629c8	-0.03951084916760156
8	0xbfb1e39ac692fb9d	-0.06987922046663049
9	0xbfb30d05a37f7979	-0.07441745034836868
10	0xbfa92e9957a7f5ef	-0.04918364710827549
11	0xbfc191c51c3608e0	-0.13726104619497104

implicit_cells.1.noise_w f8 [1]
0	0x0000000000000000	0.0

implicit_cells.1.global_w f8 [1]
0	0x0000000000000000	0.0

implicit_cells.1.local_w f8 [1]
0	0x0000000000000000	0.0

implicit_cells.1.feat.weight f8 [2, 2, 3, 3]
0	0xbfc611b6a0000000	-0.1724155694246292
1	0x3fc33bfe40000000	0.1502683460712433
2	0xbfa255c1a0000000	-0.03581051900982857
3	0x3fc16b5b60000000	0.1360887736082077
4	0x3fb478c760000000	0.0799679383635521
5	0x3fc776cce0000000	0.18331299722194672
6	0x3fa6ba8da0000000	0.04439203813672066
7	0xbf88d47a40000000	-0.012124018743634224
8	0xbfa90d6560000000	-0.0489303283393383
9	0xbfce2098a0000000	-0.2353697568178177
10	0x3fc7a5ae60000000	0.18474368751049042
11	0xbfc3f1ad20000000	-0.15581287443637848
12	0x3fc8772ec0000000	0.1911371648311615
13	0xbfca0b08e0000000	-0.20346175134181976
14	0x3f8cc47ce0000000	0.01404664572328329
15	0xbfb5878da0000000	-0.08409962803125381
16	0x3f741e6b20000000	0.00491182180121541
17	0xbfcd67b0c0000000	-0.2297268807888031
18	0x3f7eea9660000000	0.007547938730567694
19	0xbf98c05700000000	-0.024171218276023865
20	0xbfcc752a20000000	-0.22232557833194733
21	0xbfbdb5b7c0000000	-0.11605404317378998
22	0x3fcbb98e80000000	0.216600239276886
23	0x3f8bbd62a0000000	0.013544817455112934
24	0x3fad137580000000	0.056789085268974304
25	0x3fc86f5660000000	0.19089774787425995
26	0xbfbb6a3900000000	-0.1070895791053772
27	0x3fc1484440000000	0.13501790165901184
28	0xbfc4ba2b00000000	-0.16193139553070068
29	0xbf4c256b00000000	-0.0008589527569711208
30	0xbfb8425c40000000	-0.09476257860660553
31	0xbfaaf90e60000000	-0.05268139764666557
32	0xbfca4a9a80000000	-0.2054017186164856
33	0x3fb789ec60000000	0.09194829314947128
34	0xbfc8c3ace0000000	-0.1934715360403061
35	0xbfb9528c00000000	-0.09891581535339355

implicit_cells.1.feat.bias f8 [2]
0	0x3fabea94c0000000	0.05452408641576767
1	0x3fc5a82e20000000	0.16919495165348053

implicit_cells.1.highway_input.weight f8 [2, 2, 1, 1]
0	0xbfa5a9df20000000	-0.042311642318964005
1	0xbfd7cb3880000000	-0.37177860736846924
2	0x3fe265fa00000000	0.5749483108520508
3	0xbfc42cdb60000000	-0.1576189249753952

implicit_cells.1.highway_input.bias f8 [2]
0	0xbfe5865e00000000	-0.6726522445678711
1	0xbfdb97f700000000	-0.4311501979827881

implicit_cells.1.highway.weight f8 [12, 8, 1, 1]
0	0xbfd147b1a0000000	-0.2700008451938629
1	0x3f5218f6a0000000	0.001104584545828402
2	0x3fd05714a0000000	0.25531497597694397
3	0x3fb41e5900000000	0.07858806848526001
4	0xbfb9bc5e20000000	-0.10053051263093948
5	0xbfcc5e5100000000	-0.2216283082962036
6	0xbfc7986840000000	-0.18433859944343567
7	0x3fa7c57e60000000	0.046428631991147995
8	0xbfd67c9cc0000000	-0.35135573148727417
9	0xbfb54fd200000000	-0.08324921131134033
10	0xbfd24ae1a0000000	-0.2858203947544098
11	0xbf757040e0000000	-0.005234006326645613
12	0xbfb25ca220000000	-0.07172597199678421
13	0xbfc59da960000000	-0.16887395083904266
14	0x3fcab68b00000000	0.20869576930999756
15	0x3fce350dc0000000	0.23599407076835632
16	0xbfd2d8c8c0000000	-0.29448145627975464
17	0x3fd02708c0000000	0.25238245725631714
18	0xbf6d2bd7c0000000	-0.003560944925993681
19	0x3fb1202e40000000	0.06689728796482086
20	0x3fd1313040000000	0.26862722635269165
21	0x3fd58c0620000000	0.336671382188797
22	0x3f97674580000000	0.022854886949062347
23	0xbfcff926e0000000	-0.2497910112142563
24	0xbf941436a0000000	-0.019608357921242714
25	0xbfb57bdce0000000	-0.08392124623060226
26	0xbfd35ad160000000	-0.3024180829524994
27	0x3fbce70be0000000	0.11290048807859421
28	0x3fb1f17d60000000	0.07009109109640121
29	0xbfca1e0e20000000	-0.2040422111749649
30	0xbfcc1eeda0000000	-0.2196938544511795
31	0x3fc2d96340000000	0.14725914597511292
32	0xbfc7c4a600000000	-0.18568873405456543
33	0xbf57628ae0000000	-0.0014273029519245028
34	0x3fcdb0e860000000	0.23196129500865936
35	0xbf8863d760000000	-0.0119091821834445
36	0x3f956d1da0000000	0.020924055948853493
37	0xbfd43a3220000000	-0.31605198979377747
38	0xbfa8dfd120000000	-0.04858258739113808
39	0xbfb0da77a0000000	-0.06583354622125626
40	0x3fbd761900000000	0.11508327722549438
41	0xbfd2ff65c0000000	-0.2968382239341736
42	0xbfd07efb20000000	-0.2577503025531769
43	0xbfc2dec9a0000000	-0.14742393791675568
44	0x3fcd9723c0000000	0.23117491602897644
45	0xbfc3a35700000000	-0.15342223644256592
46	0xbfc1133440000000	-0.13339856266975403
47	0xbfa8aca3e0000000	-0.048192139714956284
48	0x3fb49a4100000000	0.0804787278175354
49	0xbfc725b820000000	-0.18083859980106354
50	0x3fcf02c260000000	0.24227170646190643
51	0xbfc1bcbe20000000	-0.13857246935367584
52	0x3faedb5540000000	0.0602671280503273
53	0x3fc1c01d80000000	0.13867539167404175
54	0xbf8acb2dc0000000	-0.013082845136523247
55	0x3fd36e57a0000000	0.3036097586154938
56	0x3f50e6c940000000	0.0010315862018615007
57	0x3fd4cede60000000	0.3251262605190277
58	0x3fce222480000000	0.2354169487953186
59	0x3fb029dec0000000	0.06313888728618622
60	0x3fb90d79a0000000	0.0978618636727333
61	0x3faa280660000000	0.05108661577105522
62	0xbfceec1ea0000000	-0.2415807992219925
63	0xbfd6875b20000000	-0.35201147198677063
64	0xbfd03cef60000000	-0.25371918082237244
65	0x3fd59961a0000000	0.3374866545200348
66	0xbfb60671c0000000	-0.0860358327627182
67	0x3fb68ecd80000000	0.08811649680137634
68	0xbfd54e7160000000	-0.33291277289390564
69	0x3fcd6f4bc0000000	0.22995898127555847
70	0xbfd1ed8100000000	-0.2801210880279541
71	0xbfd57033a0000000	-0.3349732458591461
72	0x3fca949de0000000	0.20766042172908783
73	0x3fc86e4f40000000	0.1908663809299469
74	0xbfa6fa1ca0000000	-0.04487695172429085
75	0x3fb0ab8660000000	0.0651172623038292
76	0xbfd68cfde0000000	-0.3523554503917694
77	0xbfc056c7e0000000	-0.12764833867549896
78	0xbfc3ac78c0000000	-0.15370091795921326
79	0x3f8ab985e0000000	0.013049169443547726
80	0x3f7676c440000000	0.005484358407557011
81	0x3fd60f8a80000000	0.34469854831695557
82	0xbfcb748840000000	-0.2144937813282013
83	0xbfd4e144c0000000	-0.32624930143356323
84	0x3fd1b28940000000	0.2765219807624817
85	0xbfb9f86720000000	-0.10144657641649246
86	0xbf9a756e60000000	-0.025838589295744896
87	0xbfb1160ca0000000	-0.06674269586801529
88	0x3fd33cbea0000000	0.30058255791664124
89	0x3f77e8c2a0000000	0.005837211851030588
90	0xbfd26d8f40000000	-0.2879369854927063
91	0xbfd4517020000000	-0.31747058033943176
92	0xbfd169bb80000000	-0.27207839488983154
93	0x3fd3100440000000	0.2978525757789612
94	0x3fcaa6c620000000	0.20821453630924225
95	0xbfc8278be0000000	-0.18870685994625092

implicit_cells.1.highway.bias f8 [12]
0	0x3fb159a5a0000000	0.06777415424585342
1	0x3fd491cbe0000000	0.32139870524406433
2	0xbfd4344080000000	-0.31568920612335205
3	0x3fcdbd94e0000000	0.23234806954860687
4	0xbfb8480a40000000	-0.09484924376010895
5	0xbfcfc8cac0000000	-0.24831518530845642
6	0x3fd03204c0000000	0.25305289030075073
7	0x3fb00e4ba0000000	0.06271813064813614
8	0xbf803ae4a0000000	-0.007924829609692097
9	0x3fce7ad3a0000000	0.23812337219715118
10	0xbfc6c58340000000	-0.17790260910987854
11	0xbfd5d28600000000	-0.3409743309020996
